…
ne, to=2, toggle=False, pdb=False, xtra=None)\n\n\n\ndef test_fun2(a:str, to:int = 2):\n    assert(a is not None)\n    print(a, to)\n\nparse_and_call(\"test\", test_fun2, [\"qwe\"], log_to_wandb=False)\n\nqwe 2"
  },
  {
    "objectID": "3b. semantic token extraction.html",
    "href": "3b. semantic token extraction.html",
    "title": "Semantic token extraction",
    "section": "",
    "text": "vq_model = vq_stoks.RQBottleneckTransformer.load_model(\"vqmodel-medium-en+pl-512c-dim64.model\").cuda()\n\n\nvq_model.ensure_whisper('cuda')\n\n\nvq_model.whmodel[0].encoder\n\nAudioEncoder(\n  (conv1): Conv1d(80, 1024, kernel_size=(3,), stride=(1,), padding=(1,))\n  (conv2): Conv1d(1024, 1024, kernel_size=(3,), stride=(2,), padding=(1,))\n  (blocks): ModuleList(\n    (0-23): 24 x ResidualAttentionBlock(\n      (attn): MultiHeadAttention(\n        (query): Linear(in_features=1024, out_features=1024, bias=True)\n        (key): Linear(in_features=1024, out_features=1024, bias=False)\n        (value): Linear(in_features=1024, out_features=1024, bias=True)\n        (out): Linear(in_features=1024, out_features=1024, bias=True)\n      )\n      (attn_ln): LayerNorm((1024,), eps=1e-05, elementwise_affine=True)\n      (mlp): Sequential(\n        (0): Linear(in_features=1024, out_features=4096, bias=True)\n        (1): GELU(approximate='none')\n        (2): Linear(in_features=4096, out_features=1024, bias=True)\n      )\n      (mlp_ln): LayerNorm((1024,), eps=1e-05, elementwise_affine=True)\n    )\n  )\n  (ln_post): LayerNorm((1024,), eps=1e-05, elementwise_affine=True)\n)\n\n\n\n\n\nAutomatic pdb calling has been turned ON\n\n\n\nprepare_stoks('../wolnelektury-wds2/wolnelektury-audio-000000.tar', n_samples=1024, batch_size=16)\n\n\n\n\n\n\n    \n      \n      100.00% [64/64 00:23&lt;00:00]\n    \n    \n\n\n\nprepare_stoks('../wolnelektury-wds2/wolnelektury-audio-000000.tar', n_samples=1024, batch_size=16)\n\n\n\n\n\n\
…
